models/wisdm_surrogate.pth (torch, 245189 bytes, 16 tensors)

input_bn.weight f4 [3]
000000 98 99 a0 3f 2e 25 a6 3f b6 98 99 3f
       1.2546873 1.2980096 1.1999729

input_bn.bias f4 [3]
000000 ac e4 f9 3c 02 af 36 bd 0e 3e 37 bc
       0.030504547 -0.044600494 -0.011184229

input_bn.running_mean f4 [3]
000000 65 98 cf bc 76 3d 8f bb 88 bd 0d 3c
       -0.025341222 -0.0043713404 0.008651145

input_bn.running_var f4 [3]
000000 ec 1b 80 3f 61 0d 82 3f 00 b0 81 3f
       1.0008521 1.0160333 1.0131836

lstm.weight_ih_l0 f4 [256, 3]
000000 36 44 82 bd a7 b6 5c be 3e cb 22 3d 60 ba 0c be
       -0.063606665 -0.21554051 0.039744608 -0.13742971
000010 da 33 05 be 57 ab 8b be 60 61 00 3e 33 f2 e3 3c
       -0.13008061 -0.2727916 0.12537146 0.02782545
000020 e3 4f 60 3d 19 83 5a 3d 41 4e 8b 3d 0f e5 94 3d
       0.054763686 0.05334768 0.06802035 0.07270252
000030 07 56 ea 3d a5 be 24 be 21 5a 48 3e 4d b4 3d be
       0.1144219 -0.1608835 0.19565631 -0.1852581
000040 25 1b ae 3e a3 d3 23 3e 1b e0 5b be b0 7e 92 bd
       0.34005085 0.15998702 -0.21472208 -0.0715307
000050 da ca 17 3e 27 db c1 3d e5 04 d1 3b 26 5f 46 3d
       0.14823475 0.09465628 0.0063787573 0.048430584
000060 61 4c 8c be 1c 2b a9 be fa c8 29 3e c5 cb e0 bc
       -0.27402022 -0.33040702 0.16580573 -0.027440915
000070 9e a5 81 3e 54 52 96 3d b7 2c 48 bd 7f 2d 72 be
       0.25321668 0.073399216 -0.04887077 -0.23650168
000080 ff 71 91 3d 08 5d cf 3d 82 a5 22 3e c5 7d 3d be
       0.07101821 0.10125166 0.15883449 -0.18505009
000090 f3 c2 28 be 7d 7f 1d be fe b2 d2 3d 23 26 52 3e
       -0.16480617 -0.15380664 0.10288046 0.2052236
0000a0 3e d2 60 be f0 85 07 3e 08 05 c2 bd 59 24 22 3e
       -0.21955201 0.13234687 -0.09473616 0.15834178
0000b0 a7 3f f5 bd 89 8a 84 3d 13 f8 3e bb f7 5b 07 bd
       -0.11975031 0.06471736 -0.0029139563 -0.03304669
0000c0 e7 42 0e 3e cf 6a 7c 3e e9 ad 1d 3e 3e 68 85 be
       0.13892709 0.24650119 0.15398373 -0.26056093
0000d0 a6 18 07 be 97 49 32 3d 90 4d d1 3e c2 d2 c0 bc
       -0.13192996 0.043527212 0.40879488 -0.023537997
0000e0 15 a9 f7 bd dc 90 a8 3d 96 c4 97 3e 26 58 05 bd
       -0.12092797 0.08230755 0.2964217 -0.032554768
0000f0 47 a5 a6 be 7e 05 9b 3d 56 71 ef bb d5 bc 90 3e
       -0.32547972 0.07569407 -0.007307212 0.28269067
000100 da 2e 9a be 21 05 21 3e 52 b0 c7 bd 00 77 4d be
       -0.3011387 0.15724613 -0.09750427 -0.20064926
000110 bd 08 32 be a7 d2 2f 3e 4c 4e 9b bd 95 e2 b3 be
       -0.17386146 0.17170201 -0.07583293 -0.35133806
000120 ee b5 93 be 27 39 75 be de 75 a9 be b9 8c 3c be
       -0.2884974 -0.23947583 -0.33097738 -0.18413056
000130 a1 f1 6b bc 1a d5 62 bd 7f a7 12 be 35 15 89 bd
       -0.014400871 -0.05537901 -0.14321707 -0.06693498
000140 ac 3c 18 3d 1f a0 d1 3e e3 15 2b 3e 1c fd 5a 3e
       0.037167236 0.40942475 0.16707568 0.21385616
000150 d7 36 1d 3d 6a 74 9f bd 75 a1 ab 3b 3e 8e 82 be
       0.038382377 -0.07785876 0.005237753 -0.25499147
000160 71 24 0f be f5 32 87 be c2 fb dd be d7 ef 07 3e
       -0.13978745 -0.26406065 -0.43356138 0.13275085
000170 0a e5 71 be 11 ab 2c be 39 85 c8 be f6 a5 7b 3d
       -0.23622528 -0.16862132 -0.3916414 0.06143757
000180 55 d8 07 3e 17 06 8d bd cc 05 b9 bd 1c 0a 2f 3e
       0.13266118 -0.06885927 -0.09034309 0.170937
000190 ec 4e 7a 3e a1 ee 87 3d eb 52 b0 be 59 f5 f6 3e
       0.24444169 0.06637312 -0.3443826 0.4823406
0001a0 e5 ed fe 3c 67 85 26 be 5c 17 cf be 5a 5a 4e bd
       0.031119296 -0.16261826 -0.4044751 -0.050379135
0001b0 4c aa 79 bd 68 31 8b bd a4 2f 9f 3d 3f 5a 9e 3e
       -0.060953423 -0.06796533 0.077727586 0.30928227
0001c0 a3 2c 30 3c 5a 53 39 be ae f5 50 bd f0 6d 81 3e
       0.01075283 -0.18098202 -0.05101555 0.25279188
0001d0 b5 e3 25 3c 00 29 2f be e1 9a 12 3e ba 05 c1 bd
       0.01012509 -0.17105484 0.14316894 -0.094249204
0001e0 e1 ae 94 be 3c e2 9e be 54 23 93 3d 79 60 65 be
       -0.29039672 -0.31031978 0.07184473 -0.22400083
0001f0 77 91 fc bd 7b 05 ec 3d cd e7 b8 3d cb af a7 be
       -0.12332433 0.11524483 0.090285875 -0.32751307
000200 91 2e 5a 3d 2a ae a9 bc f6 41 85 be b1 c7 0c 3d
       0.053267065 -0.02071293 -0.26026887 0.034370128
000210 04 d8 98 be ac 7b 9a be b1 e1 35 be bc e3 83 3e
       -0.29852307 -0.3017248 -0.17761876 0.25759685
000220 32 93 2a 3c f2 e2 12 3e df 1a 0c bd 96 50 bc be
       0.010411071 0.14344385 -0.034205314 -0.36780232
000230 cc fe 5f 3d a1 65 85 3e 84 18 c9 3e 1a 1c d3 3d
       0.054686353 0.260541 0.39276516 0.10308094
000240 6a e1 31 be ec a8 68 bd 06 87 e1 bd ac f6 b4 be
       -0.17371145 -0.05680172 -0.11012082 -0.35344446
000250 35 69 15 3e a7 a3 81 bd 28 a0 b9 bd 9b 4a af 3d
       0.14590915 -0.06330042 -0.090637505 0.08559152
000260 a8 f7 71 be 98 61 b4 3e 69 53 6f be 8a f0 2c be
       -0.2362963 0.35230708 -0.23371662 -0.16888633
000270 a3 aa 49 be 52 ae ee bc 7c 35 dc bd 46 9e bf be
       -0.19693999 -0.029135857 -0.10752389 -0.3742544
000280 40 92 00 3e 09 27 a0 3b e2 1b 8e 3c 31 91 1a 3d
       0.1255579 0.004887466 0.01734728 0.03773612
000290 8d bd 7c 3e 3f ea 04 be bb 1f a5 3e 11 1a 72 3e
       0.24681683 -0.12979983 0.3225077 0.23642756
0002a0 05 43 5d 3e fd 16 de bc 32 f4 ab be 39 07 36 be
       0.21607597 -0.027110571 -0.33584744 -0.17776193
0002b0 0e 87 14 3e bd 59 1f 3e 08 8b 52 be 0d 53 81 be
       0.14504644 0.15561576 -0.20560849 -0.25258675
0002c0 a0 ab c0 3d 59 05 6f bd 51 e7 a5 3c 8f 17 66 3d
       0.09407735 -0.05835471 0.020251902 0.05617481
0002d0 80 fc 40 be 4a 40 bc 3d bc b5 5a 3e de 4f 46 be
       -0.18846321 0.0919195 0.21358389 -0.19366404
0002e0 c0 cc c6 be 3c 50 1e 3e 4f 76 ec 3d 66 a2 4c 3e
       -0.38828087 0.15460294 0.11546003 0.19983825
0002f0 38 df 7d be f5 89 66 3e f5 c8 30 bd c6 d5 7f be
       -0.24792182 0.22513564 -0.043160398 -0.24983892
000300 f6 60 cf 3d fd 89 d6 3d 6d da 06 be ed 4f 0c 3d
       0.10125916 0.10475538 -0.1316926 0.03425591
000310 91 5b b3 3e 46 54 29 be fa 8d 74 3d e9 d3 5f bd
       0.35030797 -0.16536054 0.059705712 -0.054645453
000320 6a 78 38 be ac 21 21 be 41 57 fc bd b4 d6 57 bc
       -0.18014684 -0.15735501 -0.1232133 -0.013173748
000330 ac 86 c2 bd 7a 3e 41 3e e5 e8 ac 3e 39 b0 5f bd
       -0.09498343 0.18871489 0.33771434 -0.05461142
000340 10 20 0f be c6 86 e9 bc 4b 5c 6a bc a4 15 8c be
       -0.13977075 -0.028506648 -0.014304231 -0.2736026
000350 15 19 0a 3e 5d 54 41 be cc d4 ba bd 31 2d 7f 3d
       0.1348613 -0.18879838 -0.09122619 0.062298957
000360 32 e9 f6 bd 4f 5e 7d 3d cd c5 0e be 96 b8 ea 3d
       -0.12056197 0.061857518 -0.13942643 0.11460988
000370 22 14 4c 3d 09 df 74 3e 57 9a 14 3e 8e 29 29 3e
       0.049823888 0.23913206 0.14512001 0.16519758
000380 92 5e 7f bd 63 0b cf 3d 91 37 b1 bc 31 8e 3a bd
       -0.06234605 0.10109594 -0.021632941 -0.04554576
000390 fc 29 14 3e 14 fa a7 3e b5 1e c5 3e 5d 92 b7 bc
       0.14469141 0.32807982 0.3849999 -0.022408659
0003a0 cb 30 ad 3d d5 d7 55 be 22 90 d7 bc 6a 7c 9c bb
       0.08456572 -0.20883115 -0.026313845 -0.0047755735
0003b0 b5 ae e7 3d ea b4 0d be 00 42 c6 bd 6e bf 36 bd
       0.113126196 -0.13838544 -0.09680557 -0.044616155
0003c0 32 0d 4d be c0 99 a9 bd 65 68 83 3c 7d 94 df bd
       -0.20024565 -0.082812786 0.01604099 -0.10916994
0003d0 44 72 37 3e 70 96 aa 3d 43 c0 cc be 93 63 92 3c
       0.17914683 0.08329475 -0.39990434 0.017869746
0003e0 c4 52 3c bd ee 22 ac bd 22 0b 9d bd 5e 08 8d 3d
       -0.04597737 -0.084051 -0.07668139 0.068863615
0003f0 f5 49 df 3d 9f 88 9c bd 65 9b 29 3e 8b 73 82 bd
       0.10902778 -0.07643246 0.16563185 -0.06369694

lstm.weight_hh_l0 f4 [256, 64]
000000 53 93 57 3e cf 92 1e 3e 41 7d 1b be d4 57 e5 3c
       0.21052293 0.1548569 -0.151845 0.027995981
000010 63 9c f3 3c e8 8e 56 3d ae 7b 03 3e 57 46 14 3d
       0.029737657 0.05238238 0.12840149 0.036199894
000020 a0 39 43 3c be 22 5f 3d c3 37 92 be a7 97 d8 3d
       0.011915594 0.054476492 -0.28558168 0.105758004
000030 b1 49 80 be 92 07 00 be e2 2e c3 3d 6d b7 2d bd
       -0.25056222 -0.12502888 0.095304266 -0.042411257
000040 ad e3 1a 3d 94 28 97 3d 5f 2a 9f bd 80 d9 61 bd
       0.037814785 0.073807865 -0.077717535 -0.055139065
000050 77 e3 df 3c 49 eb 08 3d db 6b e6 bd 7c 54 ee bc
       0.027330143 0.03342751 -0.112510405 -0.02909302
000060 af 4c c4 3d b8 b0 06 3d 35 a7 ca bc ce 10 99 3d
       0.09584939 0.032883376 -0.024737934 0.07473908
000070 5c b7 13 3d bc 24 7f 3d 1d f5 31 3d bb 25 9a 3c
       0.036063537 0.062290892 0.04344665 0.01881682
000080 69 9b 82 bd d7 ae 8f bd c6 27 ec bc ee 51 41 3d
       -0.063772984 -0.0701577 -0.02882756 0.047197275
000090 27 64 41 3d 0b 24 be bd 88 59 71 be 59 c3 23 3e
       0.047214653 -0.092842184 -0.2356931 0.15992488
0000a0 10 ef c2 bc b1 8f 99 bc da 66 27 bd ff 7f 54 3d
       -0.023795635 -0.018745275 -0.04086957 0.05187988
0000b0 4f 22 3e be 7a fe 6d 3d 45 8a e0 bb bc 6a 0c bd
       -0.18567775 0.058104016 -0.0068524205 -0.034281477
0000c0 ec df c9 3c 60 8a 90 bc 13 07 1e bd 0e e2 53 bd
       0.024642907 -0.017644107 -0.038580965 -0.051729254
0000d0 5c 01 b6 bd 74 2f 5b 3e 22 88 8f 3d d1 e6 86 3d
       -0.08886978 0.2140482 0.07008387 0.065869935
0000e0 a1 d0 9a 3c a1 57 61 3e c6 15 2b be 5a ae 7d 3d
       0.01889831 0.22006084 -0.16707525 0.061933853
0000f0 c2 28 c1 3d 65 32 2f bd e6 99 18 3e 29 6a a7 bd
       0.09431602 -0.04277267 0.14902458 -0.08174545
000100 75 a2 8a bc 6b 8e c1 3c d9 25 8f bd 3c f1 be 3d
       -0.016923169 0.02362748 -0.06989641 0.093233556
000110 ee ca 0c bf 81 60 84 bd de 7f 96 bd 0b c1 f1 3d
       -0.54997146 -0.06463719 -0.073486075 0.11804398
000120 4f ec e7 bd 94 45 be bd 3a 6e 74 3d 76 26 1c bc
       -0.11324369 -0.09290615 0.059675433 -0.009530654
000130 57 18 fb 3e 26 b6 86 3d b7 da 49 3d b0 c2 06 3d
       0.49042007 0.06577711 0.04928085 0.032900512
000140 dc 8b 33 3d 25 e7 b6 bd cd 89 a6 be 79 9f 3d 3e
       0.043834552 -0.08930806 -0.3252701 0.18517865
000150 28 fd a4 3d 9d 39 30 be 48 7a 25 3d a9 b5 85 bd
       0.08056098 -0.17209478 0.04039982 -0.065287896
000160 98 1a 11 be ad 8a 9e 3e 53 a0 f0 3d e7 a7 c8 bd
       -0.14170301 0.30965176 0.117493294 -0.0979765
000170 24 b1 1b 3e 49 3c fd bc 4d 91 63 3e 7d 10 16 be
       0.15204293 -0.030912535 0.22223397 -0.14654727
000180 55 e7 46 be b8 65 8f bd e5 ed ab 3e 78 87 e1 bd
       -0.19424184 -0.07001823 0.33579937 -0.11012167
000190 cd d3 1d 3e 6c ad f0 3c 64 01 c5 3e 2f 28 af ba
       0.15412827 0.029379569 0.38477623 -0.0013363416
0001a0 4f cc 74 be 19 16 2d bc 95 e3 93 3e a0 a6 02 bd
       -0.23906063 -0.0105643505 0.2888457 -0.031897187
0001b0 fa 9e 98 3e 43 df 94 3c b2 9a 80 be b5 cf 98 be
       0.2980879 0.018172866 -0.25118023 -0.29845968
0001c0 2e c7 28 ba 38 27 57 3d 41 ec 31 bd 64 f9 20 3e
       -0.00064383715 0.052527636 -0.0434382 0.15720135
0001d0 37 0c 0f 3e f5 77 5b 3c 1e 1d 9c 3d 7b c4 57 3b
       0.13969503 0.013395299 0.07622741 0.0032923508
0001e0 11 c6 fb bb e0 26 09 be c1 ef 09 3e 0c 9e 0c be
       -0.0076835235 -0.13393736 0.13470365 -0.13732165
0001f0 7d 86 71 bc 05 89 dc bd 95 94 9b be 0d ed dc bd
       -0.014741537 -0.10768322 -0.30386797 -0.10787401
000200 cd 1b ae 3d 76 35 66 3b 17 08 c9 3d 5d ba 9e 3d
       0.08501396 0.003512708 0.09815996 0.0775039
000210 88 87 c3 bd 9d a0 49 bd c5 55 51 bc dc 2c 29 bd
       -0.09547335 -0.04922544 -0.012776797 -0.041302547
000220 ad 94 cc bd ed cf 97 bb 11 20 25 3d 33 2b 31 3d
       -0.09989295 -0.004632941 0.040313784 0.04325409
000230 da ab 51 bd 70 26 9a bd b2 fd a3 3d e1 ac 4a 3d
       -0.05118928 -0.075268626 0.08007373 0.049481276
000240 2b 44 e1 3d e3 6d 80 be 2c 30 d8 be a8 d9 3c 3e
       0.1099933 -0.25083837 -0.42224252 0.18442404
000250 7b 41 86 bb 08 ff 0c be 8d d5 9a bd ab 67 9b 3c
       -0.0040971613 -0.13769162 -0.07560263 0.018970331
000260 77 86 b7 bd 31 c8 cf 3d 27 5c f0 bd 8c 65 63 be
       -0.08961194 0.10145605 -0.11736327 -0.22206706
000270 02 ad fc bc 18 5f 53 3c 0d 96 8d 3d e2 8a 0f be
       -0.030844215 0.01290109 0.069133855 -0.14017823
000280 e0 58 1f 3a c3 36 dd 3d cb 57 7b 3e 23 b6 37 bd
       0.0006078612 0.108014606 0.24545209 -0.044851433
000290 5e af 75 3d 40 07 65 3d a6 61 39 bd 4a 52 25 bc
       0.059981696 0.055915117 -0.04525914 -0.01009042
0002a0 d6 6e 8d 3b 79 c6 62 3e 7a 19 57 3e 1b 9a 20 3d
       0.004316191 0.22146024 0.21005812 0.039209466
0002b0 07 fd 36 3e a5 3a 36 bd 10 42 70 be f8 c2 9a be
       0.1786996 -0.04448952 -0.23462701 -0.30226874
0002c0 9f 35 ea 39 d4 db 56 3d 06 29 9b 3d be 9a e9 3c
       0.0004467191 0.05245574 0.07576184 0.02851617
0002d0 84 23 38 3e 0a ae 98 bd 5b 33 12 be 94 93 aa bd
       0.17982298 -0.0745507 -0.14277403 -0.083289295
0002e0 a0 77 5d 3d 1e 02 56 3e ac cc a1 3c 2e b5 87 bd
       0.05406916 0.20899245 0.019750915 -0.06626354
0002f0 84 b3 01 3e 98 3e ec bd b8 91 86 bd e2 2e d7 bd
       0.12666136 -0.11535376 -0.065707624 -0.10506989
000300 40 48 43 bd dc 6a 51 3d f3 5f 0d 3d 51 29 b2 bd
       -0.047676325 0.0511273 0.034515332 -0.08699287
000310 15 df 89 3e a4 ca b5 bc e8 d0 52 bd a1 64 8b bd
       0.2692801 -0.022191353 -0.05146876 -0.06806303
000320 8d 39 5d 33 29 e5 b4 3d dc 30 e4 bc a7 3a 47 3d
       5.1507914e-08 0.08832771 -0.02785533 0.04863992
000330 21 e0 28 3e ed f3 d0 bd 25 d8 18 bd ef 09 09 bc
       0.16491748 -0.10202775 -0.037315506 -0.008364185
000340 46 9c 19 3e f9 d9 b9 bc 3c 1e 0c bd 2f ca e1 3d
       0.1500102 -0.022686945 -0.03420852 0.110248916
000350 57 51 01 3e 3d 91 17 be 9b b6 c7 bd c6 a9 a7 3d
       0.12628685 -0.14801498 -0.09751626 0.081866786
000360 a4 31 85 3b ef a7 24 3c 55 c7 98 3d 28 89 21 bc
       0.0040647555 0.010049804 0.074598946 -0.009859361
000370 ba ae 9e bd f2 c2 fc 3c 8b f6 37 bd d8 b9 2a be
       -0.0774817 0.030854676 -0.044912856 -0.16672456
000380 7e 20 fc bd 93 55 5a 3d 4e 3c a1 bd 9f 6c a7 bd
       -0.12310885 0.053304266 -0.0787283 -0.08175015
000390 22 e3 29 bd ac 33 79 3a a4 9d 9a 3d 98 58 e8 3d
       -0.041476376 0.0009506296 0.07549599 0.11345023
0003a0 5c a5 7f 3d 3e ec c1 bd c9 37 07 bc 0c 70 06 bc
       0.06241356 -0.09468888 -0.008253046 -0.008205425
0003b0 99 c1 51 bb cb c8 b1 bd 73 8f 3d bd a3 57 12 be
       -0.0032006262 -0.08680876 -0.046279382 -0.14291243
0003c0 f3 79 60 bd ed 01 1d 3e 78 8b d6 bb b7 7b 8f bd
       -0.0548038 0.15332766 -0.0065473877 -0.070060186
0003d0 6f 92 9a 3c 8a 3f d7 bd ce cc 52 bc db 8e a5 3d
       0.018868653 -0.10510166 -0.012866212 0.08083888
0003e0 8c 69 16 3e 0e a9 75 3d d6 41 03 be bb e5 6c 39
       0.146887 0.059975676 -0.12818083 0.00022592295
0003f0 51 45 34 3d bb a2 91 3c 70 c3 8a 3d 7c 79 ca bb
       0.044011418 0.017777791 0.06775558 -0.006179033

lstm.bias_ih_l0 f4 [256]
000000 97 c6 09 bb d8 a7 56 3a d5 27 83 bc db 12 02 3a
       -0.002102291 0.0008188463 -0.016010204 0.0004961916
000010 31 d9 3f 3e 81 69 a5 bc 29 31 05 bd 47 09 96 bc
       0.18735196 -0.02019191 -0.032517586 -0.01831497
000020 25 fd eb 3b 6c f0 5a bc 84 d9 87 bc 13 11 a4 bc
       0.007201808 -0.013362985 -0.016583212 -0.020027673
000030 31 6b 3e 3e d6 4d ef bc e5 42 0c bd 84 62 d8 bc
       0.18595578 -0.02921192 -0.034243483 -0.026414163
000040 0c dd 49 bb 39 98 e2 bc 70 73 9b 3d 53 ba a7 bc
       -0.003080192 -0.027660476 0.07590377 -0.020474588
000050 bd 66 e7 bc 65 e1 ab bb 50 7b b9 bb 18 70 02 bd
       -0.028247232 -0.005245375 -0.005660452 -0.031845182
000060 02 5d e0 bb 50 27 8f bb a9 83 8e 3c 32 70 03 bd
       -0.006847025 -0.0043687 0.017396765 -0.03208942
000070 48 4f 9f 3a 6f f4 af bc 79 5d 92 bd f2 68 9d 3b
       0.0012154365 -0.02147886 -0.07146735 0.00480377
000080 de 15 e8 3b da 02 36 bd 6b 3e 78 bd 74 74 b8 bc
       0.007082685 -0.044436313 -0.0606064 -0.022516467
000090 8c 4c 6f bc 76 bc a7 3c 47 f3 2c 3c 66 53 b7 bb
       -0.014605653 0.020475607 0.010556049 -0.0055946587
0000a0 56 7a df bc 91 0d c3 bc bc 3f 18 bd f1 89 94 bc
       -0.027280014 -0.02381018 -0.037170157 -0.018132182
0000b0 74 0f f1 bb e9 b6 c6 3a 29 45 40 bc 51 b1 50 be
       -0.0073565785 0.0015160713 -0.011735239 -0.20380141
0000c0 3d 0a 47 bd 82 4c 7b bc 52 36 cd 3a 7f 76 4d bc
       -0.04859375 -0.015338065 0.0015656448 -0.012540459
0000d0 83 e6 3b 3c 62 e4 94 bc 0c a7 30 bc 18 4e 61 bd
       0.0114685325 -0.018175308 -0.010782015 -0.055006117
0000e0 82 84 e5 bc 37 07 fc 3b df 44 b7 bc 58 20 46 bc
       -0.028017286 0.0076912898 -0.022371707 -0.012092672
0000f0 69 67 bc 3b 2f 46 7a bc 39 fb 05 3d 77 69 42 bc
       0.005749632 -0.015275522 0.032710288 -0.011865965
000100 8c 4c 80 3f 74 3f 73 3f 79 45 75 3f 45 95 77 3f
       1.002336 0.95018697 0.9580913 0.9671214
000110 7d d0 70 3f 50 c2 80 3f ea 94 73 3f fe cb 7c 3f
       0.9406813 1.00593 0.951491 0.9874877
000120 85 d5 81 3f 95 17 7b 3f d4 8b 76 3f aa 32 7f 3f
       1.0143286 0.9808286 0.9630711 0.9968668
000130 2e b7 73 3f e6 46 7a 3f cd d1 74 3f d4 f9 77 3f
       0.95201385 0.9776443 0.9563263 0.9686558
000140 32 ee 81 3f 35 81 71 3f 8c 78 77 3f 9f 33 80 3f
       1.0150816 0.9433778 0.96668315 1.0015754
000150 34 3d 80 3f 89 fe 7e 3f 81 b0 80 3f 05 f3 7c 3f
       1.0018678 0.9960714 1.0053865 0.9880832
000160 35 35 7d 3f 8e 71 77 3f 79 b7 72 3f cc a9 82 3f
       0.9890931 0.96657646 0.9481121 1.0208068
000170 ec 59 7d 3f fa 78 80 3f 43 4c 81 3f 66 9e 7d 3f
       0.98965335 1.0036919 1.0101398 0.9906982
000180 e4 d6 76 3f 38 bd 7a 3f 43 e6 84 3f cc 56 79 3f
       0.9642165 0.97944975 1.038277 0.97398067
000190 53 ce 7a 3f 5c de 78 3f d4 9e 7a 3f fb 7d 7d 3f
       0.97971076 0.97214293 0.978986 0.99020356
0001a0 c6 33 77 3f 5c e2 79 3f c5 89 7c 3f 97 59 7b 3f
       0.96563375 0.9761102 0.9864772 0.9818358
0001b0 d3 5f 7d 3f fa 7c 80 3f d6 8d 77 3f 42 4b 87 3f
       0.9897434 1.003814 0.967008 1.0569842
0001c0 3e 10 6f 3f 51 d9 80 3f 46 30 7d 3f 52 85 7a 3f
       0.9338416 1.006632 0.98901784 0.9785968
0001d0 b2 2d 7c 3f 87 9b 76 3f 63 ed 81 3f 80 9a 7a 3f
       0.98507226 0.96331066 1.015057 0.97892
0001e0 f6 0b 7c 3f 2b be 7d 3f 8f 46 80 3f 3d da 7a 3f
       0.9845575 0.991183 1.0021533 0.97989255
0001f0 e0 58 70 3f 29 44 80 3f ac 0e 7f 3f e7 69 79 3f
       0.9388561 1.0020801 0.9963176 0.9742722
000200 d1 2c c1 3b f9 8c b0 bb aa 7e 2c 3c 14 58 3c 3c
       0.005895235 -0.005387899 0.010528246 0.011495609
000210 c6 0a 25 3b 12 03 14 bc 32 8e 4e bb 3b 6f cc bb
       0.0025183423 -0.009033935 -0.003151786 -0.0062388456
000220 cc 3b f9 bb 64 70 f9 ba 81 12 fd bb ee 0f 3c 3c
       -0.0076060053 -0.0019030687 -0.007723153 0.011478407
000230 57 cd 9e 3b 93 3f 25 3c 55 77 37 3c 88 f2 ab b9
       0.0048462558 0.010085958 0.011197885 -0.00032796361
000240 94 c7 a6 3c 8b 38 57 bc 49 99 c2 3b d7 33 ac 3c
       0.020358838 -0.0131360395 0.005938683 0.021020813
000250 a3 47 93 3c bf 72 c5 bb a2 08 a4 3a 6f 14 30 37
       0.017978495 -0.0060256417 0.001251478 1.0495175e-05
000260 72 88 8c 3c 23 84 64 3b 9e a0 d1 3b 4d 59 2e 3b
       0.017154906 0.0034868799 0.006397321 0.002660352
000270 49 b7 03 3b 5d 33 bb ba e2 47 35 3c 73 1d 1e 3c
       0.002009826 -0.0014282275 0.0110645015 0.009650576
000280 7b 4b 4f 3c b8 4a 6e 3c cc 2f 23 3c cf 43 c8 bc
       0.012652273 0.0145441815 0.009960126 -0.024446396
000290 38 10 86 3c 46 15 b5 3c 4c 50 7a 3c 26 9b ce bb
       0.016365156 0.02210487 0.015277933 -0.006305116
0002a0 6a a9 7d bc d1 4a b8 bb d8 c9 6a bb b4 e1 60 3c
       -0.015482286 -0.005624153 -0.0035825875 0.013725687
0002b0 a2 f0 ca b9 86 32 08 3b 17 96 ba 3a e8 a8 d2 b9
       -0.00038707728 0.0020782067 0.0014235404 -0.00040180166
0002c0 b7 33 46 3c ba 6f 30 b8 a8 e3 65 3b 6f 13 d1 bb
       0.012097291 -4.2065723e-05 0.003507832 -0.0063804905
0002d0 44 0e 26 39 0a d5 83 bc 49 da 9b 3c 70 20 83 bb
       0.00015836308 -0.016092796 0.019024985 -0.0040016696
0002e0 2d ba 0a bb d5 4c 30 bc 43 90 fb bb ce 5a aa b9
       -0.0021168098 -0.010760506 -0.0076771094 -0.00032492582
0002f0 0c 1f 3e bb 68 e9 22 b9 7c 69 22 3b 55 c3 b4 b9
       -0.0029010205 -0.00015536475 0.0024782112 -0.0003447781
000300 7b cb 33 3d 04 03 3b 3d 12 6f 8b bc 5d 4e ad bc
       0.043895226 0.045657173 -0.017020736 -0.02115553
000310 f7 01 67 3e f7 03 45 3d de 10 fd bc 99 6e d9 bc
       0.22559343 0.048099484 -0.030891832 -0.026541995
000320 fa 49 45 3c a4 2e 1e 3c f1 cb e0 bb e3 18 1d bb
       0.012041563 0.009654675 -0.006860249 -0.0023971132
000330 2e 6e 7b 3e 6c f4 a5 3c 95 5e 2c bd 03 d4 b1 bc
       0.24553749 0.020258151 -0.042082388 -0.02170754
000340 65 61 b8 3c 6e 65 6f 3b 6b d0 1f 3e a0 58 44 3d
       0.022507379 0.0036528963 0.15606849 0.047936082
000350 65 5d 80 bc a6 10 7f 3d 6b 23 ef bc 89 27 1f 3c
       -0.015669534 0.062271737 -0.029191693 0.009714016
000360 15 35 c6 3d 6d ae 59 3c 37 b1 a3 3b b8 66 2d 3d
       0.09678093 0.013286215 0.004995491 0.04233429
000370 21 61 4d bc 9b 5c 10 3d c4 c4 57 3d ab 95 1e 3d
       -0.012535364 0.035244565 0.052677885 0.038716953
000380 54 a1 4d 3c 98 5c a2 39 c6 31 95 3d b2 d7 01 3d
       0.012550671 0.00030968036 0.07284884 0.031699844
000390 07 e6 08 bd b0 19 e2 3c 12 99 26 3d f1 18 a3 bc
       -0.033422496 0.02760014 0.040673323 -0.019909354
0003a0 23 24 98 bc 84 29 25 bc b9 8b 3d 3c e0 07 80 3b
       -0.018571919 -0.010080699 0.011568957 0.003907189
0003b0 14 f9 26 3d b3 fb 04 3d 5f a6 8d 3c 4c 90 de 3d
       0.040764883 0.0324666 0.017291246 0.10867366
0003c0 40 5f 4f bd 06 23 15 bd 92 c9 c1 bc 07 65 fb 3c
       -0.050627947 -0.036410354 -0.023655687 0.030687822
0003d0 0c d4 0f 3d 42 77 2a 3d 05 8c 99 bc 99 24 a1 bb
       0.035114333 0.04161764 -0.018743524 -0.004917693
0003e0 df 87 3c 3b 9e 8f 65 3d 24 43 96 3c be 16 07 bb
       0.002876751 0.056045167 0.018342562 -0.002061292
0003f0 e3 04 62 3d 31 e1 40 3b 9d d2 0e 3d 29 0e 05 3d
       0.05518044 0.00294311 0.034868825 0.032484207

lstm.bias_hh_l0 f4 [256]
000000 97 c6 09 bb d8 a7 56 3a d5 27 83 bc db 12 02 3a
       -0.002102291 0.0008188463 -0.016010204 0.0004961916
000010 31 d9 3f 3e 81 69 a5 bc 29 31 05 bd 47 09 96 bc
       0.18735196 -0.02019191 -0.032517586 -0.01831497
000020 25 fd eb 3b 6c f0 5a bc 84 d9 87 bc 13 11 a4 bc
       0.007201808 -0.013362985 -0.016583212 -0.020027673
000030 31 6b 3e 3e d6 4d ef bc e5 42 0c bd 84 62 d8 bc
       0.18595578 -0.02921192 -0.034243483 -0.026414163
000040 0c dd 49 bb 39 98 e2 bc 70 73 9b 3d 53 ba a7 bc
       -0.003080192 -0.027660476 0.07590377 -0.020474588
000050 bd 66 e7 bc 65 e1 ab bb 50 7b b9 bb 18 70 02 bd
       -0.028247232 -0.005245375 -0.005660452 -0.031845182
000060 02 5d e0 bb 50 27 8f bb a9 83 8e 3c 32 70 03 bd
       -0.006847025 -0.0043687 0.017396765 -0.03208942
000070 48 4f 9f 3a 6f f4 af bc 79 5d 92 bd f2 68 9d 3b
       0.0012154365 -0.02147886 -0.07146735 0.00480377
000080 de 15 e8 3b da 02 36 bd 6b 3e 78 bd 74 74 b8 bc
       0.007082685 -0.044436313 -0.0606064 -0.022516467
000090 8c 4c 6f bc 76 bc a7 3c 47 f3 2c 3c 66 53 b7 bb
       -0.014605653 0.020475607 0.010556049 -0.0055946587
0000a0 56 7a df bc 91 0d c3 bc bc 3f 18 bd f1 89 94 bc
       -0.027280014 -0.02381018 -0.037170157 -0.018132182
0000b0 74 0f f1 bb e9 b6 c6 3a 29 45 40 bc 51 b1 50 be
       -0.0073565785 0.0015160713 -0.011735239 -0.20380141
0000c0 3d 0a 47 bd 82 4c 7b bc 52 36 cd 3a 7f 76 4d bc
       -0.04859375 -0.015338065 0.0015656448 -0.012540459
0000d0 83 e6 3b 3c 62 e4 94 bc 0c a7 30 bc 18 4e 61 bd
       0.0114685325 -0.018175308 -0.010782015 -0.055006117
0000e0 82 84 e5 bc 37 07 fc 3b df 44 b7 bc 58 20 46 bc
       -0.028017286 0.0076912898 -0.022371707 -0.012092672
0000f0 69 67 bc 3b 2f 46 7a bc 39 fb 05 3d 77 69 42 bc
       0.005749632 -0.015275522 0.032710288 -0.011865965
000100 8c 4c 80 3f 74 3f 73 3f 79 45 75 3f 45 95 77 3f
       1.002336 0.95018697 0.9580913 0.9671214
000110 7d d0 70 3f 50 c2 80 3f ea 94 73 3f fe cb 7c 3f
       0.9406813 1.00593 0.951491 0.9874877
000120 85 d5 81 3f 95 17 7b 3f d4 8b 76 3f aa 32 7f 3f
       1.0143286 0.9808286 0.9630711 0.9968668
000130 2e b7 73 3f e6 46 7a 3f cd d1 74 3f d4 f9 77 3f
       0.95201385 0.9776443 0.9563263 0.9686558
000140 32 ee 81 3f 35 81 71 3f 8c 78 77 3f 9f 33 80 3f
       1.0150816 0.9433778 0.96668315 1.0015754
000150 34 3d 80 3f 89 fe 7e 3f 81 b0 80 3f 05 f3 7c 3f
       1.0018678 0.9960714 1.0053865 0.9880832
000160 35 35 7d 3f 8e 71 77 3f 79 b7 72 3f cc a9 82 3f
       0.9890931 0.96657646 0.9481121 1.0208068
000170 ec 59 7d 3f fa 78 80 3f 43 4c 81 3f 66 9e 7d 3f
       0.98965335 1.0036919 1.0101398 0.9906982
000180 e4 d6 76 3f 38 bd 7a 3f 43 e6 84 3f cc 56 79 3f
       0.9642165 0.97944975 1.038277 0.97398067
000190 53 ce 7a 3f 5c de 78 3f d4 9e 7a 3f fb 7d 7d 3f
       0.97971076 0.97214293 0.978986 0.99020356
0001a0 c6 33 77 3f 5c e2 79 3f c5 89 7c 3f 97 59 7b 3f
       0.96563375 0.9761102 0.9864772 0.9818358
0001b0 d3 5f 7d 3f fa 7c 80 3f d6 8d 77 3f 42 4b 87 3f
       0.9897434 1.003814 0.967008 1.0569842
0001c0 3e 10 6f 3f 51 d9 80 3f 46 30 7d 3f 52 85 7a 3f
       0.9338416 1.006632 0.98901784 0.9785968
0001d0 b2 2d 7c 3f 87 9b 76 3f 63 ed 81 3f 80 9a 7a 3f
       0.98507226 0.96331066 1.015057 0.97892
0001e0 f6 0b 7c 3f 2b be 7d 3f 8f 46 80 3f 3d da 7a 3f
       0.9845575 0.991183 1.0021533 0.97989255
0001f0 e0 58 70 3f 29 44 80 3f ac 0e 7f 3f e7 69 79 3f
       0.9388561 1.0020801 0.9963176 0.9742722
000200 d1 2c c1 3b f9 8c b0 bb aa 7e 2c 3c 14 58 3c 3c
       0.005895235 -0.005387899 0.010528246 0.011495609
000210 c6 0a 25 3b 12 03 14 bc 32 8e 4e bb 3b 6f cc bb
       0.0025183423 -0.009033935 -0.003151786 -0.0062388456
000220 cc 3b f9 bb 64 70 f9 ba 81 12 fd bb ee 0f 3c 3c
       -0.0076060053 -0.0019030687 -0.007723153 0.011478407
000230 57 cd 9e 3b 93 3f 25 3c 55 77 37 3c 88 f2 ab b9
       0.0048462558 0.010085958 0.011197885 -0.00032796361
000240 94 c7 a6 3c 8b 38 57 bc 49 99 c2 3b d7 33 ac 3c
       0.020358838 -0.0131360395 0.005938683 0.021020813
000250 a3 47 93 3c bf 72 c5 bb a2 08 a4 3a 6f 14 30 37
       0.017978495 -0.0060256417 0.001251478 1.0495175e-05
000260 72 88 8c 3c 23 84 64 3b 9e a0 d1 3b 4d 59 2e 3b
       0.017154906 0.0034868799 0.006397321 0.002660352
000270 49 b7 03 3b 5d 33 bb ba e2 47 35 3c 73 1d 1e 3c
       0.002009826 -0.0014282275 0.0110645015 0.009650576
000280 7b 4b 4f 3c b8 4a 6e 3c cc 2f 23 3c cf 43 c8 bc
       0.012652273 0.0145441815 0.009960126 -0.024446396
000290 38 10 86 3c 46 15 b5 3c 4c 50 7a 3c 26 9b ce bb
       0.016365156 0.02210487 0.015277933 -0.006305116
0002a0 6a a9 7d bc d1 4a b8 bb d8 c9 6a bb b4 e1 60 3c
       -0.015482286 -0.005624153 -0.0035825875 0.013725687
0002b0 a2 f0 ca b9 86 32 08 3b 17 96 ba 3a e8 a8 d2 b9
       -0.00038707728 0.0020782067 0.0014235404 -0.00040180166
0002c0 b7 33 46 3c ba 6f 30 b8 a8 e3 65 3b 6f 13 d1 bb
       0.012097291 -4.2065723e-05 0.003507832 -0.0063804905
0002d0 44 0e 26 39 0a d5 83 bc 49 da 9b 3c 70 20 83 bb
       0.00015836308 -0.016092796 0.019024985 -0.0040016696
0002e0 2d ba 0a bb d5 4c 30 bc 43 90 fb bb ce 5a aa b9
       -0.0021168098 -0.010760506 -0.0076771094 -0.00032492582
0002f0 0c 1f 3e bb 68 e9 22 b9 7c 69 22 3b 55 c3 b4 b9
       -0.0029010205 -0.00015536475 0.0024782112 -0.0003447781
000300 7b cb 33 3d 04 03 3b 3d 12 6f 8b bc 5d 4e ad bc
       0.043895226 0.045657173 -0.017020736 -0.02115553
000310 f7 01 67 3e f7 03 45 3d de 10 fd bc 99 6e d9 bc
       0.22559343 0.048099484 -0.030891832 -0.026541995
000320 fa 49 45 3c a4 2e 1e 3c f1 cb e0 bb e3 18 1d bb
       0.012041563 0.009654675 -0.006860249 -0.0023971132
000330 2e 6e 7b 3e 6c f4 a5 3c 95 5e 2c bd 03 d4 b1 bc
       0.24553749 0.020258151 -0.042082388 -0.02170754
000340 65 61 b8 3c 6e 65 6f 3b 6b d0 1f 3e a0 58 44 3d
       0.022507379 0.0036528963 0.15606849 0.047936082
000350 65 5d 80 bc a6 10 7f 3d 6b 23 ef bc 89 27 1f 3c
       -0.015669534 0.062271737 -0.029191693 0.009714016
000360 15 35 c6 3d 6d ae 59 3c 37 b1 a3 3b b8 66 2d 3d
       0.09678093 0.013286215 0.004995491 0.04233429
000370 21 61 4d bc 9b 5c 10 3d c4 c4 57 3d ab 95 1e 3d
       -0.012535364 0.035244565 0.052677885 0.038716953
000380 54 a1 4d 3c 98 5c a2 39 c6 31 95 3d b2 d7 01 3d
       0.012550671 0.00030968036 0.07284884 0.031699844
000390 07 e6 08 bd b0 19 e2 3c 12 99 26 3d f1 18 a3 bc
       -0.033422496 0.02760014 0.040673323 -0.019909354
0003a0 23 24 98 bc 84 29 25 bc b9 8b 3d 3c e0 07 80 3b
       -0.018571919 -0.010080699 0.011568957 0.003907189
0003b0 14 f9 26 3d b3 fb 04 3d 5f a6 8d 3c 4c 90 de 3d
       0.040764883 0.0324666 0.017291246 0.10867366
0003c0 40 5f 4f bd 06 23 15 bd 92 c9 c1 bc 07 65 fb 3c
       -0.050627947 -0.036410354 -0.023655687 0.030687822
0003d0 0c d4 0f 3d 42 77 2a 3d 05 8c 99 bc 99 24 a1 bb
       0.035114333 0.04161764 -0.018743524 -0.004917693
0003e0 df 87 3c 3b 9e 8f 65 3d 24 43 96 3c be 16 07 bb
       0.002876751 0.056045167 0.018342562 -0.002061292
0003f0 e3 04 62 3d 31 e1 40 3b 9d d2 0e 3d 29 0e 05 3d
       0.05518044 0.00294311 0.034868825 0.032484207

lstm.weight_ih_l1 f4 [256, 64]
000000 f5 68 79 bb fd 40 46 bd 7b 87 7b 3d 21 31 52 bd
       -0.0038056944 -0.04840182 0.0614085 -0.051316384
000010 0d 59 b1 bd eb a3 b7 bd 0b e9 49 be 9d 96 f8 bc
       -0.08659563 -0.08966812 -0.19717805 -0.030345256
000020 99 85 89 3e f0 ce 0b 3c 3d ef d1 3d a1 16 7b be
       0.2685974 0.008533224 0.10250709 -0.24520351
000030 13 15 80 bd fd 81 00 be 30 74 95 bd 57 41 b0 3d
       -0.062540196 -0.12549587 -0.07297552 0.086062126
000040 52 46 14 3d d8 04 84 bc 3b 88 de 3d dd 71 54 be
       0.036199875 -0.01611559 0.10865828 -0.2074656
000050 ee b7 41 3d f0 db 0b be c3 68 02 be 12 21 34 bc
       0.04729455 -0.13658118 -0.12735276 -0.010994213
000060 44 b3 9f be c4 f3 92 bc cf 06 0a 3e 21 63 2e 3d
       -0.31191456 -0.017938502 0.1347916 0.042575005
000070 9b 7a eb 3d 57 60 6b be 04 a5 08 be 9a bd 09 3c
       0.114979945 -0.2298597 -0.13344198 0.008407021
000080 df 30 b5 3c dd c4 6a bd 6e c6 cd bd 81 ba e5 3d
       0.02211803 -0.05731665 -0.10047613 0.112172134
000090 cb b1 b9 bd 5a 70 08 bc 4c 86 5b 3d 24 ee c2 3c
       -0.090671144 -0.008327568 0.053594872 0.023795195
0000a0 bc 0d b5 3d 76 b7 f2 bd 32 0b 61 3b 43 d4 9b 3d
       0.0884051 -0.11851399 0.0034338948 0.07608845
0000b0 a1 da bf bd 50 f1 b1 3d 80 6f 00 3c 7d 1d c8 3d
       -0.09367872 0.08688605 0.007839084 0.097712494
0000c0 a1 0d 9b 3d 47 59 1a bd 4e 82 0d 3d b5 c4 0e be
       0.07570959 -0.037682798 0.034548096 -0.13942225
0000d0 46 e1 b2 3d ef ba 0c be 25 3f 02 3e e1 06 3b 3d
       0.08734374 -0.13743185 0.127194 0.045660857
0000e0 4a 1f c9 3d f2 de 21 3d f0 bd 8b 3d 79 df c1 3d
       0.09820421 0.039519258 0.06823337 0.09466452
0000f0 94 03 4f 3e d7 cf 00 be 64 16 91 bd ba f5 89 3e
       0.20216209 -0.12579285 -0.07084349 0.26945287
000100 36 e1 b7 bd 27 02 bb 3d 0b df 18 bd 2a 6f 71 3a
       -0.089785025 0.0913127 -0.037322085 0.0009209985
000110 5f 8c b8 bc 5b bc 44 be 84 53 00 3e 5e 9b 6e 3d
       -0.022527872 -0.19212477 0.12531859 0.05825364
000120 49 3f 49 3d de f4 37 be db 02 e2 3c ee ff 93 3c
       0.04913262 -0.17964503 0.027589252 0.018066373
000130 03 70 3c 3e 44 e8 de 3d ef 28 1b be 3e c5 36 3c
       0.18402104 0.10884145 -0.15152334 0.011155425
000140 2b 59 db 3d a2 5f 60 bd 21 68 b1 bd 69 16 15 bd
       0.10710367 -0.054778703 -0.08662439 -0.036398325
000150 2a 4e 8a bc c5 ac b1 3d b5 6b 3b 3d b8 9b 8d bd
       -0.016882975 0.08675531 0.045757014 -0.069144666
000160 5b 03 68 be d4 0e 8c 3d 8c 4e 94 3d 21 3c c1 bd
       -0.2265753 0.06838766 0.07241544 -0.09435297
000170 cd ec 07 3e 88 51 8e 3d 01 5c 72 bd f0 06 e1 bd
       0.13273926 0.069491446 -0.059169773 -0.10987651
000180 ca 99 c1 bc 54 07 63 bd a6 df 2a be 81 9d d0 3d
       -0.023632903 -0.05542691 -0.16686878 0.101862915
000190 8e c3 15 bd 84 a0 ba bd 41 65 a8 bd 5a 37 3c bd
       -0.03656345 -0.09112647 -0.08222438 -0.045951225
0001a0 88 27 b2 3c 76 d2 b2 bd 6a 08 ca bd a1 40 b2 bd
       0.021747366 -0.087315485 -0.09864886 -0.08703733
0001b0 95 0c 89 3c 77 55 a1 3d 38 e3 1a be 88 3d e4 bd
       0.016729632 0.07877629 -0.1512574 -0.11144549
0001c0 69 cc 23 bc e6 66 17 be b1 ec 2e 3e ee 90 8a ba
       -0.009997466 -0.14785346 0.17082478 -0.0010571757
0001d0 5a d6 80 bd cd f9 a0 3c a8 aa b0 3d 7a 63 9a bd
       -0.06290884 0.019650364 0.086263 -0.07538505
0001e0 3c 64 15 3e cb e6 55 3d 03 f3 25 3e 60 06 f8 3d
       0.14589018 0.052222054 0.16205983 0.12110591
0001f0 c4 dc d0 bc 1c 20 70 bd c0 26 8e 3d 77 c9 31 3c
       -0.025495894 -0.058624372 0.06940985 0.010851256
000200 73 f4 f3 bd ed 68 3c be 3d 21 1c 3d cf 25 40 be
       -0.11911859 -0.18399401 0.038117636 -0.18764423
000210 9f db 06 3c 8c 1b 67 3d 5e fd 31 be 3b 0e 94 3d
       0.008231073 0.056422755 -0.17381808 0.07229277
000220 47 4d 4a 3e b8 f1 06 3e c4 f8 3d 3c 26 f0 0f be
       0.19756041 0.13178146 0.011594955 -0.14056453
000230 4a 3f 16 3e 5f 47 3f be dd 5e 36 bd 84 cd c0 3d
       0.1467258 -0.1867957 -0.044524062 0.09414199
000240 60 b6 47 3d 50 13 28 be a8 2e ea 3d f3 ad 05 be
       0.04875791 -0.16413617 0.1143468 -0.13054638
000250 7e e7 1b be da 41 ef bd 1c db 8b bd 47 e9 c5 ba
       -0.15225026 -0.11682482 -0.06828901 -0.0015099429
000260 01 1f 48 be ee e1 7f bd ee 33 91 3c 16 fe 28 3d
       -0.19543077 -0.062471323 0.017724957 0.04125794
000270 e6 5e 98 bd d4 16 bb 3b 2a 7d fc bd cd b3 ca 3d
       -0.074399754 0.0057095084 -0.12328561 0.098975755
000280 b2 a1 9c 3a d4 38 d6 bc ac 84 94 bd 12 f5 90 bd
       0.0011950044 -0.026150145 -0.07251868 -0.070779935
000290 88 bd 74 3b eb eb e5 bd 15 30 17 bd 5c 68 98 3c
       0.0037344415 -0.112266384 -0.03691109 0.01860445
0002a0 00 da 29 3e a2 2e d3 bd 1d 4f 0e 3d 63 27 48 be
       0.16587067 -0.10311629 0.034743417 -0.19546275
0002b0 c7 f1 17 bd bd 0b a9 bc e7 12 9f bc 2d 3b 25 bc
       -0.03709581 -0.02063548 -0.019418193 -0.010084909
0002c0 db ba 11 bd e8 ec 8c 3d 70 64 9b bc 52 b2 d0 bc
       -0.03557859 0.06881124 -0.01896879 -0.025475655
0002d0 2a bd cf 3c e2 9f 0c 3e 67 9b 16 bd c8 d3 03 bd
       0.025358755 0.13732865 -0.036769297 -0.032184392
0002e0 05 89 c8 bc 9d 74 5f 3e fc 47 68 bd 0b 4f f5 3d
       -0.024479399 0.21821828 -0.056709275 0.11977967
0002f0 74 79 34 be ac 63 ee 3d 43 c0 49 bd ec 5d 4d bd
       -0.17624456 0.11640105 -0.04925562 -0.0501384
000300 d8 7f 2d be dc c5 bf bd 1c 11 8e 3c e7 fe ec bd
       -0.169433 -0.093639106 0.017342143 -0.11572056
000310 9d b0 55 3d 8d 1f 37 be cd 4f b5 3d dd 45 e1 bd
       0.052170385 -0.1788313 0.088531114 -0.109996535
000320 84 bc f1 bd 16 eb 56 bd 5a 2c 6c bd 8a 4d 01 be
       -0.118035346 -0.05247029 -0.057659484 -0.12627235
000330 ed c2 de 3d 15 01 62 3c fd 1a 0f bd fe 7e 36 3d
       0.10877023 0.013794203 -0.034937847 0.044554703
000340 91 e6 26 bd de a7 ee 3d a1 8a dc 3d f5 9c 51 3d
       -0.04074723 0.11653112 0.10768629 0.051175077
000350 96 cb 98 3d 4c 54 47 3e fb 97 b0 bd 88 fb fd bd
       0.07460706 0.1946575 -0.08622738 -0.124014914
000360 64 f1 f8 bd 0f 23 12 be ec 9b 54 bd 20 7d 4e 3e
       -0.121554166 -0.14271186 -0.05190651 0.20164919
000370 b5 4d 7f 3d 40 58 90 3d f3 dc 10 be 6b 5c 74 bc
       0.062329967 0.07048082 -0.14146785 -0.014914612
000380 07 00 93 3d 08 f3 8a bc a9 82 96 bc 45 5b d3 bd
       0.071777396 -0.01696159 -0.01837285 -0.10320143
000390 2a 83 2f 3d 82 35 bf bc 0b f2 a2 3c 53 9d 9b 3d
       0.042849697 -0.023340944 0.019890806 0.075983666
0003a0 05 b6 00 3d dd 81 ff bd 3f 41 55 bc e6 db ec 3d
       0.031423587 -0.12475941 -0.013016044 0.1156538
0003b0 0e f5 f5 3d 0b 13 b6 3d c7 db 23 be 7e 48 90 3d
       0.12009631 0.08890351 -0.16001807 0.07045077
0003c0 32 6c 0a bd 02 14 46 be 74 4d 19 3d 4d eb 73 3c
       -0.03379459 -0.1934357 0.03742738 0.014887643
0003d0 dc a6 f5 bb 0a a9 81 bd 74 a6 23 be 67 db 31 bd
       -0.007496698 -0.0633107 -0.15981466 -0.04342213
0003e0 d2 35 35 bd dc 11 a8 3d 9a 9a 83 3a 0d 83 0b be
       -0.04424078 0.082065314 0.0010040582 -0.1362421
0003f0 78 86 a3 bd 71 36 26 3e c1 4b 1e bd 90 69 94 bd
       -0.07984632 0.16231705 -0.038646463 -0.07246697

lstm.weight_hh_l1 f4 [256, 64]
000000 81 3a a7 bd 0a 37 85 bc f1 fc bf bc 1f 38 d4 3b
       -0.081654556 -0.016261596 -0.023436042 0.0064764167
000010 15 bc 34 3d f0 c1 02 3d 69 bd 2e 3d 9e f8 03 3e
       0.04412468 0.031923234 0.042661104 0.12887809
000020 8a 4c 93 bd 48 d5 c5 bc 0d 25 92 bd 8a de 9f bd
       -0.07192333 -0.024149552 -0.07135973 -0.07806118
000030 83 f5 dc 3d fc bf 0f bd 45 ef e2 bd 94 09 8b bc
       0.10789015 -0.0350952 -0.11080793 -0.01697234
000040 11 2f bc bd aa f6 2b 3d 74 50 37 3b 84 8c 9c 3c
       -0.09188665 0.041983284 0.0027971538 0.019109972
000050 8d 69 48 3d 26 2c ac 3d b6 f8 84 3c 7c a7 0f be
       0.048928786 0.08406858 0.016231876 -0.14028734
000060 98 ab 8e bd 9e 2f 0d bd fd 2a 45 3d af 49 29 be
       -0.06966323 -0.03446924 0.0481367 -0.16532014
000070 97 f7 64 3e 41 88 0e bd 40 12 f2 bd 7d 9a 48 3c
       0.22360073 -0.03479791 -0.11819887 0.012243864
000080 79 ba 11 be 10 00 db 3c 09 17 ab 3b f5 89 94 3c
       -0.1423129 0.026733428 0.005221252 0.01813219
000090 3c 69 25 3d 57 0e a1 3d c2 00 c9 3c 74 35 b4 bc
       0.040383562 0.07864063 0.024536494 -0.021998145
0000a0 9b e6 c4 3c 58 dc 77 3c 71 33 57 bd 57 87 3c be
       0.024035743 0.015128218 -0.052539293 -0.18411003
0000b0 02 e2 0a 3e b0 6b a4 3d b4 5f 2e bd 77 66 4d bd
       0.13562778 0.08028352 -0.04257174 -0.050146546
0000c0 b7 a3 55 bd e4 63 1a bc 35 5f ba 3d a7 7a b5 bd
       -0.052158084 -0.00942323 0.091001906 -0.08861285
0000d0 8f 3f 5c be b7 38 ba bb 12 b2 f9 bd ee 81 ba bd
       -0.2150862 -0.0056830305 -0.12192167 -0.09106813
0000e0 30 92 9a 3c e5 59 4f bd 87 55 85 3c 48 ba a0 bc
       0.018868536 -0.05062284 0.016276134 -0.019620076
0000f0 74 50 03 bb d4 3f ac bd ff f5 0c 3c f4 84 d7 bd
       -0.0020036967 -0.08410612 0.008603572 -0.10523406
000100 03 46 3a bd a7 c1 f0 3d fe ab 5d 3c 20 61 01 3d
       -0.045476925 0.11755686 0.013529776 0.031586766
000110 be 39 81 3d 8b 1a 8b 3d 68 7f 51 bd 2c 2b 3d 3d
       0.063098416 0.06792172 -0.051146895 0.04618375
000120 ce 33 bb 3d 07 2b b1 3d 2b 55 05 39 40 19 cc 3c
       0.0914074 0.08650785 0.00012715596 0.024914384
000130 22 15 16 3d c5 ab 3a 3d 55 15 3a bd 46 ec 5d bd
       0.036641248 0.04557397 -0.0454305 -0.054180406
000140 23 92 3f 3d d1 e1 1c be 4e e8 32 3e 1b f4 46 3d
       0.046770226 -0.15320517 0.1747143 0.04857264
000150 34 1f 39 3c de 9c 18 3d 10 62 26 3d 33 80 ac bd
       0.011298943 0.037258975 0.040620863 -0.084228896
000160 05 9a 18 3c ed 1d cd bc 70 8f 62 3d bf 3c fc 3c
       0.009314065 -0.025038684 0.055312574 0.030790685
000170 b0 46 14 bd f5 11 3c be ab f5 e5 bc 4b 1f 34 3d
       -0.036200225 -0.18366225 -0.028071245 0.043975156
000180 66 9d 91 bc 7b e2 c4 bd 6d eb 8b 3d ff 9c c1 bc
       -0.017775249 -0.0961351 0.06832013 -0.023634432
000190 dc a3 0a bd 92 fc 9a 3d 6f 30 aa bc 46 8e ae bd
       -0.033847675 0.07567705 -0.020775048 -0.0852323
0001a0 51 92 be bc e7 5c c2 3c 5b fc 26 3c 19 d3 25 3e
       -0.023263128 0.02372594 0.010192002 0.16193809
0001b0 b8 27 a0 3c 9e c0 ef 3b 82 8f 21 bd b9 33 86 3c
       0.01955019 0.007316663 -0.0394435 0.016382085
0001c0 52 c7 04 3d 94 25 1a 3d 49 c5 4a 3d 7d 66 09 be
       0.03241665 0.037633494 0.049504552 -0.13418002
0001d0 cc f8 64 3d de 4e 2d 3e a1 45 ad 3d a6 20 c5 3d
       0.055901334 0.16924617 0.08460546 0.09625368
0001e0 af fd b3 bd 09 b5 40 3e 6f ba dc 3d d9 fd 5c bc
       -0.08788621 0.1881906 0.10777747 -0.013488256
0001f0 6f 33 14 bd a8 04 1c 3d cf 08 21 3c 3f 87 2b 3d
       -0.036181863 0.038090378 0.00982876 0.041877028
000200 74 e2 9e bd 0c 7f 13 b9 9c 17 1c 3d 75 16 41 3d
       -0.07758036 -0.00014066341 0.038108453 0.047140557
000210 c7 66 3e bd 20 c9 fc bd e9 09 83 bd b6 d4 af 3d
       -0.046484735 -0.12343049 -0.063983746 0.08585493
000220 19 85 87 bc 4b 74 c1 3c be 85 05 be 8f 13 26 3c
       -0.016542958 0.023615023 -0.130393 0.010136499
000230 04 3b 14 be 89 ef 8f 3b dc ec 97 bc fe 64 d6 3c
       -0.14475638 0.0043925685 -0.01854556 0.026171204
000240 db d4 c3 3d 36 ea 3d bb ad 60 59 3d aa 40 03 be
       0.09562083 -0.0028978712 0.053070713 -0.12817636
000250 4c a4 b9 3d f7 22 c0 3d 59 22 3d 3e 7c ce 54 bd
       0.0906454 0.09381669 0.18470134 -0.05195473
000260 f4 cc 00 3e 23 20 0a 3d 64 1b 2a bc 04 bf 8c 3d
       0.12578183 0.033722054 -0.010382507 0.06872371
000270 d9 e4 83 bc 92 5e 33 3d cd c2 22 bc 90 b0 44 bc
       -0.016100334 0.04379136 -0.009934139 -0.012004986
000280 6a ad a7 3b 5c 91 41 bd e4 97 ab 3d bf 8b ff bd
       0.005117108 -0.047257766 0.0837858 -0.12477826
000290 44 b8 62 3d b3 bb 04 3e ff 50 c6 3d 63 f5 d2 3d
       0.05535151 0.12962227 0.096834175 0.1030071
0002a0 05 b5 26 bd 6d 25 12 3e 5e 56 8e bd 84 32 02 3e
       -0.040699977 0.1427209 -0.06950067 0.12714583
0002b0 d6 dc 02 bd 4e 70 56 bb 86 a1 de bd 7a 87 6f 3d
       -0.031948887 -0.0032720747 -0.10870652 0.05847881
0002c0 54 a3 f2 3b 8f 4c f2 3d 63 01 7d bd 8e 08 4c bd
       0.007404724 0.11831009 -0.0617689 -0.049812846
0002d0 77 a3 dd 3b dd 91 0d be 01 40 28 3d 44 1a 33 3e
       0.0067638713 -0.13825174 0.041076664 0.17490488
0002e0 48 c3 14 3d b7 97 44 3d c0 fe 7a bd c1 da 50 bd
       0.036319047 0.04799625 -0.061278105 -0.05098987
0002f0 8d b4 9a bb 74 61 a5 3d 1f ee d9 bc 88 6d b1 bd
       -0.0047212304 0.08075228 -0.026602803 -0.086634696
000300 7d 1b 6f bd c0 1f 77 3d 87 16 ef bd 41 09 a5 bd
       -0.058375824 0.060333014 -0.116742186 -0.08058406
000310 b0 9f 1a 3d dc 65 a7 bd e5 4f af 3d 0f cf 42 3e
       0.037749946 -0.08173725 0.085601605 0.19024299
000320 da bf 06 3d 23 91 dc 3b 5b fa 73 bc e1 e2 14 3d
       0.032897808 0.006731169 -0.014891232 0.03634918
000330 a8 21 6f 3d 7f 0d 8b 3d 46 fc 66 3d c5 a6 92 3c
       0.058381706 0.067896836 0.05639293 0.017901788
000340 cf 9a 00 3d 02 24 24 bd ae 4b 01 3d d4 9f f0 3d
       0.031397637 -0.040073402 0.031566314 0.11749235
000350 40 3a 13 3e 5c 2b 8b bc d0 65 b8 bc de c4 96 bd
       0.1437769 -0.016988449 -0.022509485 -0.07361768
000360 f3 87 46 3c eb 7a 3b bc 32 46 26 3c 83 c8 07 3d
       0.012117374 -0.01144288 0.010148572 0.033150207
000370 9d 20 ab bd 2f 08 52 3d 44 c5 10 3e 32 35 58 bd
       -0.0835583 0.051277336 0.14137751 -0.052785106
000380 4b ba 85 3d b3 95 a9 bc d4 b7 6b 3e 8c a1 f1 bb
       0.06529673 -0.020701265 0.23019344 -0.007373994
000390 af 10 39 3d d5 8d 13 bd 4c e3 94 bb 5b 11 af bd
       0.045181926 -0.036023933 -0.0045436975 -0.08548232
0003a0 d3 d2 4a 3d 95 70 d2 bc 82 68 e7 bc 1d 31 ba 3d
       0.049517464 -0.025688449 -0.028248075 0.09091399
0003b0 31 24 cf bb f2 72 f9 bd 59 57 7c bd 4d 56 85 bb
       -0.006321453 -0.12180127 -0.06160674 -0.0040691257
0003c0 43 33 1f bc 8b 8e 4f 3d 32 bc 03 3e b2 ac e5 bd
       -0.009716812 0.05067305 0.1286476 -0.1121458
0003d0 d0 a5 99 bc ff 02 11 bd 54 9d 7a bd 09 5e 25 bd
       -0.018755823 -0.035403248 -0.061185196 -0.040372882
0003e0 a4 8a 21 3e 7d 18 db bc a2 eb 90 3d ec 2d 0c bd
       0.15775543 -0.026745075 0.070761934 -0.034223482
0003f0 af 67 cc 3b 3a 6a fb 3d e9 14 03 bd 14 c6 b7 bc
       0.006237946 0.122761205 -0.032002363 -0.022433318

lstm.bias_ih_l1 f4 [256]
000000 cf b2 df 3c d8 8b 92 bc 9a dd ba bd da 8b 86 bd
       0.027306942 -0.017888948 -0.091242984 -0.06569643
000010 85 af d3 3d 1a b7 c8 3c c8 b0 30 bd e5 d9 86 3c
       0.10336212 0.024501372 -0.04313734 0.016461322
000020 8a 20 23 3d dd 96 6a 3c 11 2d eb bc d6 03 07 3b
       0.039825954 0.014318195 -0.028708013 0.0020601652
000030 f7 f9 13 bd 20 cb e5 bc e1 bf 0e 3d da c2 b4 bc
       -0.036127057 -0.02805096 0.03485096 -0.022065569
000040 f8 72 ab 3c 83 67 4b 3c 47 d9 06 bd 02 91 2c 3c
       0.020928845 0.012414816 -0.032922056 0.010532619
000050 7a 4a c8 bc e5 53 7c b9 c4 f4 41 3c 9d 63 25 bc
       -0.024449576 -0.00024063846 0.011838142 -0.01009455
000060 93 99 34 3c 31 e4 ee bc 94 b2 8a bc 88 58 97 bc
       0.011022943 -0.029161545 -0.016930856 -0.018474832
000070 bf 31 91 3d a8 66 ce ba d2 ec 08 3d 6f 29 d8 3b
       0.070895664 -0.0015747147 0.033428974 0.006596736
000080 98 4c 22 bc 25 09 ee 3c 76 96 67 3d d1 42 eb bb
       -0.009905957 0.029057095 0.056539975 -0.007179596
000090 a5 de 1c bc 8b 1e 09 3d 7f f2 f3 3b 27 e6 48 ba
       -0.009574567 0.033476394 0.0074446793 -0.000766369
0000a0 a4 e8 63 bc 06 0c d9 bc 08 b2 b7 3c b1 25 06 3d
       -0.013910446 -0.026494991 0.02242376 0.03275079
0000b0 6b fe 0a bd 90 5d ad bc f3 24 8b bc dc 64 47 bd
       -0.033934038 -0.021162778 -0.016985392 -0.04868017
0000c0 f5 5d 0f 3d 9f 20 5e bd d1 22 8a bc 5d 02 9f b9
       0.035001714 -0.05423033 -0.016862305 -0.00030328604
0000d0 41 6d a6 bc 2b 6c a2 3c f7 90 63 3a e2 8f 34 ba
       -0.020315768 0.01982697 0.0008680964 -0.0006887895
0000e0 29 21 97 bc ef e8 0f 3d b0 be 6c bd 56 53 db bc
       -0.01844843 0.035134252 -0.05779904 -0.026773136
0000f0 9e 41 c7 ba d5 80 34 bd f5 ea 94 bc 7f 66 50 bc
       -0.001520205 -0.044068176 -0.018178442 -0.0127197495
000100 d7 9c 7e 3f 6b 37 77 3f 15 c5 6e 3f 0c 03 84 3f
       0.9945807 0.96568936 0.93269473 1.031343
000110 49 92 82 3f 6e b8 87 3f 9e a0 7e 3f 06 91 83 3f
       1.0200893 1.0603158 0.9946383 1.0278633
000120 09 39 87 3f ac fe 78 3f 27 2c 89 3f a5 7e 81 3f
       1.0564281 0.972636 1.0716599 1.0116774
000130 3c e3 7c 3f 56 61 7f 3f 82 19 81 3f 09 f7 79 3f
       0.9878423 0.997579 1.0085909 0.9764257
000140 b2 01 88 3f 10 99 84 3f fa 45 79 3f 1f a1 87 3f
       1.0625517 1.0359211 0.973724 1.0596045
000150 c0 e7 80 3f 56 d8 82 3f b0 4b 7e 3f ee 97 7a 3f
       1.0070724 1.022227 0.9933424 0.97888076
000160 04 68 84 3f e1 7b 7c 3f da 18 7f 3f de 3b 81 3f
       1.0344243 0.98626524 0.99647295 1.0096395
000170 72 d3 84 3f 80 7b 80 3f 6a 21 84 3f 43 d5 84 3f
       1.0377028 1.0037689 1.0322697 1.0377582
000180 91 21 85 3f 2c c5 86 3f 9b b0 95 3f 8d d2 80 3f
       1.0400869 1.0528922 1.1694521 1.0064255
000190 15 5c 87 3f 9a e1 80 3f 10 ac 80 3f e1 65 8c 3f
       1.0574976 1.0068848 1.0052509 1.0968591
0001a0 59 c6 81 3f 64 9c 86 3f d0 f0 7a 3f 8a ed 86 3f
       1.0138656 1.0516477 0.980237 1.0541241
0001b0 ee f0 77 3f 99 7f 80 3f 2d 56 84 3f 6a 6b 76 3f
       0.96852005 1.003894 1.0338799 0.9625765
0001c0 a4 0b 84 3f 3f f0 7a 3f c0 0f 7b 3f 46 27 84 3f
       1.0316052 0.98022836 0.9807091 1.0324485
0001d0 66 13 81 3f de 73 80 3f ff e9 82 3f 3c 29 89 3f
       1.0084045 1.003536 1.022766 1.0715709
0001e0 d4 2c 7b 3f d4 41 85 3f 83 7a 82 3f 74 28 7e 3f
       0.9811528 1.0410714 1.0193638 0.99280477
0001f0 9b ef 85 3f c0 21 82 3f 0f 0a 83 3f 8e 99 83 3f
       1.0463747 1.016655 1.0237445 1.0281236
000200 e5 06 1a 3c fb 7b 1a bc 6c fb 8e 3c 00 e5 69 3b
       0.009401058 -0.009428973 0.017453872 0.0035689473
000210 17 2c 5b bc 66 e3 1f 3d c9 c3 4c 3b b9 1d 80 bc
       -0.013377211 0.039035223 0.0031244627 -0.015639173
000220 c8 5e 55 3c 68 a2 ee 3a 1e 72 6c 3c 4b 19 1c bc
       0.013023086 0.001820636 0.0144315045 -0.009527515
000230 55 9f b9 3a 9d 8a c4 bc 66 94 be 3a a0 8e 54 bc
       0.0014161865 -0.023991877 0.0014540076 -0.012973458
000240 d7 12 ff bb 2c 36 22 3d 2f 54 c5 3c 4c 25 32 3d
       -0.0077842283 0.039602444 0.024087993 0.0434926
000250 da 5e 38 bc bb f1 9d 3a 5f 71 cb 3b 00 c2 9a bc
       -0.011253083 0.0012050191 0.0062085832 -0.018891335
000260 e4 0a ec ba 3e d6 80 3c c0 e8 5e bc 5d d8 7a ba
       -0.0018008617 0.015727159 -0.013605297 -0.0009568984
000270 e0 df 12 3c e1 a5 1b 3c dd 33 b9 bb 9e 39 85 bb
       0.008964509 0.009499998 -0.0056519345 -0.0040657064
000280 7d f7 67 3b 55 17 bb 3c b3 29 04 bd 37 20 95 bc
       0.0035395317 0.022838274 -0.03226633 -0.018203838
000290 3d d7 36 bd 0e ae c9 3c 1b 15 ad 3b 8d fd 18 bd
       -0.04463886 0.024619129 0.005282057 -0.03735118
0002a0 92 62 ac 3c dc 0e b6 bc b7 fc 7d bc d5 ee d9 3b
       0.021043096 -0.022223882 -0.015502146 0.0066507854
0002b0 63 25 b7 bb 22 5d 53 3b 64 d7 a1 bc 60 25 cc ba
       -0.0055891736 0.0032251556 -0.019756027 -0.0015575103
0002c0 9c f8 51 bc 6f 32 7b 3c 62 1e 72 3c 66 54 d5 3b
       -0.012815621 0.0153318485 0.014777752 0.006510305
0002d0 11 3f 50 bc b8 fd cc b9 d5 eb ee ba d8 d5 d8 bc
       -0.012710349 -0.00039098947 -0.0018228242 -0.026469156
0002e0 d0 bb 04 3a a2 c8 db bc 87 35 7a bb 9a a9 f9 bb
       0.00050633866 -0.026829068 -0.0038178877 -0.007619095
0002f0 2f 10 3a 3d 75 09 92 bc e9 6e c0 bc 16 b1 38 3c
       0.04542559 -0.017826775 -0.023490386 0.011272689
000300 3d 6f ae 3d 6d 67 a7 3b 72 ea b1 b8 fb 51 fc bc
       0.08517311 0.005108765 -8.4836865e-05 -0.03080081
000310 b8 bd bc 3d 18 e1 c5 3c ae f7 b0 bb e7 fc 9a 3c
       0.092158735 0.024155185 -0.0054006195 0.018919421
000320 d7 f0 99 bb ed 56 55 3d 04 73 69 3d 8b 9f a2 3c
       -0.0046979 0.052084852 0.056994453 0.019851467
000330 da 6d a5 3b a9 c3 a0 3c 14 9f 04 3d e7 75 8f 3c
       0.0050484957 0.019624548 0.03237827 0.017512275
000340 ac fa 96 3c bc fc 22 bc a9 0d bc 3b dc dc 7b 3a
       0.018430077 -0.009947952 0.005738933 0.0009607801
000350 82 31 b0 3c 1e 1c f6 ba b5 17 a1 3c 67 96 40 3d
       0.021507982 -0.001877669 0.019664625 0.047018435
000360 a7 04 cc 3c 02 cb aa 3c 66 96 a4 bc a8 f5 aa bc
       0.024904562 0.020848755 -0.020091247 -0.020869091
000370 ff 7b 8c 3c 25 3a c4 3c 44 30 31 3d 10 2f fa 3c
       0.01714897 0.023953507 0.04325892 0.03054002
000380 31 d5 0c 3a 8c 51 ac 3c 02 a0 d5 3c 8a 9f a4 3c
       0.0005372344 0.021034978 0.026077274 0.020095605
000390 4f b0 16 ba a4 11 73 3d d6 95 07 3c ac 16 74 3d
       -0.0005748318 0.059342995 0.00827547 0.059591934
0003a0 83 43 6c bc 66 26 0c 3c b8 53 b4 ba 8f 3c ea 3c
       -0.014420393 0.008554077 -0.001375786 0.02859333
0003b0 cd 0b ee 3c 4b 90 1e bc 9d f5 1b 3d 05 64 16 3c
       0.029058361 -0.009677957 0.038076032 0.00917912
0003c0 98 69 e7 3c 4e 84 ba 3b d8 29 5e bc 37 bb 16 bc
       0.028248593 0.0056920415 -0.013559781 -0.009199909
0003d0 77 ff ca 3d 35 fd 41 3d 07 8d 98 3c b1 16 0e 3b
       0.09912007 0.047360618 0.018621935 0.0021681006
0003e0 90 92 98 bb 44 e4 3b 3d 85 82 3d 3d 7b a1 d2 3c
       -0.0046561435 0.045871988 0.04626705 0.025711766
0003f0 62 1f 57 bc a0 9f 9c bc 3c 0f 46 3c 1c 32 0e bc
       -0.013130041 -0.019119084 0.012088593 -0.008678939
